…
  top: "data"
  top: "label"
  include {
    phase: TRAIN
  }
  transform_param {
    mirror: false
    mean_value: 104
    mean_value: 117
    mean_value: 123
  }
  image_data_param {
    source: "/l/vision/v5/chen478/siamese/train1"
    batch_size: 1
  }
}
layer {
  name: "data_p"
  type: "ImageData"
  top: "data_p"
  top: "label_p"
  include {
    phase: TRAIN
  }
  transform_param {
    mirror: false
    mean_value: 104
    mean_value: 117
    mean_value: 123
  }
  image_data_param {
    source: "/l/vision/v5/chen478/siamese/train2"
    batch_size: 1
  }
}
layer {
  name: "label"
  type: "Python"
  bottom: "label"
  bottom: "label_p"
  top: "sim"
  include {
    phase: TRAIN
  }
  python_param {
    module: "siamese"
    layer: "SiameseLabels"
  }
}
layer {
  name: "conv1"
  type: "Convolution"
  bottom: "data"
  top: "conv1"
  param {
    name: "conv1_w"
    lr_mult: 1
  }
  param {
    name: "conv1_b"
    lr_mult: 2
  }
  convolution_param {
    num_output: 3
    kernel_size: 5
    stride: 5
    weight_filler {
      type: "xavier"
    }
    bias_filler {
      type: "constant"
    }
  }
}
layer {
  name: "bn_conv1"
  type: "BatchNorm"
  bottom: "conv1"
  top: "conv1"
  param {
    lr_mult: 0
  }
  param {
    lr_mult: 0
  }
  param {
    lr_mult: 0
  }
}
layer {
  name: "scale_conv1"
  type: "Scale"
  bottom: "conv1"
  top: "conv1"
  scale_param {
    bias_term: true
  }
}
layer {
  name: "relu"
  type: "PReLU"
  bottom: "conv1"
  top: "conv1"
}
layer {
  name: "deconv1"
  type: "Deconvolution"
  bottom: "conv1"
  top: "deconv1"
  param {
    name: "ip1_w"
    lr_mult: 1
  }
  param {
    name: "ip1_b"
    lr_mult: 2
  }
  convolution_param {
    num_output: 1
    kernel_size: 5
    stride: 5
    weight_filler {
      type: "xavier"
    }
    bias_filler {
      type: "constant"
    }
  }
}
layer {
  name: "bn_deconv1"
  type: "BatchNorm"
  bottom: "deconv1"
  top: "deconv1"
  param {
    lr_mult: 0
  }
  param {
    lr_mult: 0
  }
  param {
    lr_mult: 0
  }
}
layer {
  name: "scale_deconv1"
  type: "Scale"
  bottom: "deconv1"
  top: "deconv1"
  scale_param {
    bias_term: true
  }
}
layer {
  name: "relu_deconv1"
  type: "PReLU"
  bottom: "deconv1"
  top: "deconv1"
}
layer {
  name: "pool"
  type: "Pooling"
  bottom: "deconv1"
  top: "pool"
  pooling_param {
    pool: MAX
    kernel_size: 7
    stride: 7
  }
}
layer {
  name: "ip1"
  type: "InnerProduct"
  bottom: "pool"
  top: "ip1"
  inner_product_param {
    num_output: 20
    weight_filler {
      type: "xavier"
    }
    bias_filler {
      type: "constant"
    }
  }
}
layer {
  name: "conv1_p"
  type: "Convolution"
  bottom: "data_p"
  top: "conv1_p"
  param {
    name: "conv1_w"
    lr_mult: 1
  }
  param {
    name: "conv1_b"
    lr_mult: 2
  }
  convolution_param {
    num_output: 3
    kernel_size: 5
    stride: 5
    weight_filler {
      type: "xavier"
    }
    bias_filler {
      type: "constant"
    }
  }
}
layer {
  name: "bn_conv1_p"
  type: "BatchNorm"
  bottom: "conv1_p"
  top: "conv1_p"
  param {
    lr_mult: 0
  }
  param {
    lr_mult: 0
  }
  param {
    lr_mult: 0
  }
}
layer {
  name: "scale_conv1_p"
  type: "Scale"
  bottom: "conv1_p"
  top: "conv1_p"
  scale_param {
    bias_term: true
  }
}
layer {
  name: "relu_p"
  type: "PReLU"
  bottom: "conv1_p"
  top: "conv1_p"
}
layer {
  name: "deconv1_p"
  type: "Deconvolution"
  bottom: "conv1_p"
  top: "deconv1_p"
  param {
    name: "ip1_w"
    lr_mult: 1
  }
  param {
    name: "ip1_b"
    lr_mult: 2
  }
  convolution_param {
    num_output: 1
    kernel_size: 5
    stride: 5
    weight_filler {
      type: "xavier"
    }
    bias_filler {
      type: "constant"
    }
  }
}
layer {
  name: "bn_deconv1_p"
  type: "BatchNorm"
  bottom: "deconv1_p"
  top: "deconv1_p"
  param {
    lr_mult: 0
  }
  param {
    lr_mult: 0
  }
  param {
    lr_mult: 0
  }
}
layer {
  name: "scale_deconv1_p"
  type: "Scale"
  bottom: "deconv1_p"
  top: "deconv1_p"
  scale_param {
    bias_term: true
  }
}
layer {
  name: "relu1_deconv_p"
  type: "PReLU"
  bottom: "deconv1_p"
  top: "deconv1_p"
}
layer {
  name: "pool_p"
  type: "Pooling"
  bottom: "deconv1_p"
  top: "pool_p"
  pooling_param {
    pool: MAX
    kernel_size: 7
    stride: 7
  }
}
layer {
  name: "ip1_p"
  type: "InnerProduct"
  bottom: "pool_p"
  top: "ip1_p"
  inner_product_param {
    num_output: 20
    weight_filler {
      type: "xavier"
    }
    bias_filler {
      type: "constant"
    }
  }
}
layer {
  name: "loss"
  type: "ContrastiveLoss"
  bottom: "ip1"
  bottom: "ip1_p"
  bottom: "sim"
  top: "loss"
  contrastive_loss_param {
    margin: 1
  }
}
I0718 15:42:44.426198 95522 layer_factory.hpp:77] Creating layer data
I0718 15:42:44.426252 95522 net.cpp:91] Creating Layer data
I0718 15:42:44.426268 95522 net.cpp:399] data -> data
I0718 15:42:44.426308 95522 net.cpp:399] data -> label
I0718 15:42:44.426340 95522 image_data_layer.cpp:38] Opening file /l/vision/v5/chen478/siamese/train1
I0718 15:42:44.426511 95522 image_data_layer.cpp:58] A total of 195 images.
I0718 15:42:44.488195 95522 image_data_layer.cpp:85] output data size: 1,3,1200,1600
I0718 15:42:44.537838 95522 net.cpp:141] Setting up data
I0718 15:42:44.537895 95522 net.cpp:148] Top shape: 1 3 1200 1600 (5760000)
I0718 15:42:44.537909 95522 net.cpp:148] Top shape: 1 (1)
I0718 15:42:44.537916 95522 net.cpp:156] Memory required for data: 23040004
I0718 15:42:44.537931 95522 layer_factory.hpp:77] Creating layer data_p
I0718 15:42:44.537962 95522 net.cpp:91] Creating Layer data_p
I0718 15:42:44.537974 95522 net.cpp:399] data_p -> data_p
I0718 15:42:44.537997 95522 net.cpp:399] data_p -> label_p
I0718 15:42:44.538020 95522 image_data_layer.cpp:38] Opening file /l/vision/v5/chen478/siamese/train2
I0718 15:42:44.538198 95522 image_data_layer.cpp:58] A total of 195 images.
I0718 15:42:44.588884 95522 image_data_layer.cpp:85] output data size: 1,3,1200,1600
I0718 15:42:44.638249 95522 net.cpp:141] Setting up data_p
I0718 15:42:44.638286 95522 net.cpp:148] Top shape: 1 3 1200 1600 (5760000)
I0718 15:42:44.638298 95522 net.cpp:148] Top shape: 1 (1)
I0718 15:42:44.638306 95522 net.cpp:156] Memory required for data: 46080008
I0718 15:42:44.638316 95522 layer_factory.hpp:77] Creating layer label
I0718 15:42:46.307844 95522 net.cpp:91] Creating Layer label
I0718 15:42:46.307891 95522 net.cpp:425] label <- label
I0718 15:42:46.307914 95522 net.cpp:425] label <- label_p
I0718 15:42:46.307926 95522 net.cpp:399] label -> sim
I0718 15:42:46.308408 95522 net.cpp:141] Setting up label
I0718 15:42:46.308430 95522 net.cpp:148] Top shape: 1 (1)
I0718 15:42:46.308440 95522 net.cpp:156] Memory required for data: 46080012
I0718 15:42:46.308449 95522 layer_factory.hpp:77] Creating layer conv1
I0718 15:42:46.308481 95522 net.cpp:91] Creating Layer conv1
I0718 15:42:46.308490 95522 net.cpp:425] conv1 <- data
I0718 15:42:46.308503 95522 net.cpp:399] conv1 -> conv1
I0718 15:42:46.309777 95522 net.cpp:141] Setting up conv1
I0718 15:42:46.309799 95522 net.cpp:148] Top shape: 1 3 240 320 (230400)
I0718 15:42:46.309830 95522 net.cpp:156] Memory required for data: 47001612
I0718 15:42:46.309851 95522 layer_factory.hpp:77] Creating layer bn_conv1
I0718 15:42:46.309869 95522 net.cpp:91] Creating Layer bn_conv1
I0718 15:42:46.309877 95522 net.cpp:425] bn_conv1 <- conv1
I0718 15:42:46.309888 95522 net.cpp:386] bn_conv1 -> conv1 (in-place)
I0718 15:42:46.310199 95522 net.cpp:141] Setting up bn_conv1
I0718 15:42:46.310217 95522 net.cpp:148] Top shape: 1 3 240 320 (230400)
I0718 15:42:46.310225 95522 net.cpp:156] Memory required for data: 47923212
I0718 15:42:46.310250 95522 layer_factory.hpp:77] Creating layer scale_conv1
I0718 15:42:46.310267 95522 net.cpp:91] Creating Layer scale_conv1
I0718 15:42:46.310276 95522 net.cpp:425] scale_conv1 <- conv1
I0718 15:42:46.310287 95522 net.cpp:386] scale_conv1 -> conv1 (in-place)
I0718 15:42:46.310343 95522 layer_factory.hpp:77] Creating layer scale_conv1
I0718 15:42:46.311331 95522 net.cpp:141] Setting up scale_conv1
I0718 15:42:46.311352 95522 net.cpp:148] Top shape: 1 3 240 320 (230400)
I0718 15:42:46.311362 95522 net.cpp:156] Memory required for data: 48844812
I0718 15:42:46.311374 95522 layer_factory.hpp:77] Creating layer relu
I0718 15:42:46.311389 95522 net.cpp:91] Creating Layer relu
I0718 15:42:46.311398 95522 net.cpp:425] relu <- conv1
I0718 15:42:46.311408 95522 net.cpp:386] relu -> conv1 (in-place)
I0718 15:42:46.312443 95522 net.cpp:141] Setting up relu
I0718 15:42:46.312463 95522 net.cpp:148] Top shape: 1 3 240 320 (230400)
I0718 15:42:46.312470 95522 net.cpp:156] Memory required for data: 49766412
I0718 15:42:46.312482 95522 layer_factory.hpp:77] Creating layer deconv1
I0718 15:42:46.312502 95522 net.cpp:91] Creating Layer deconv1
I0718 15:42:46.312511 95522 net.cpp:425] deconv1 <- conv1
I0718 15:42:46.312525 95522 net.cpp:399] deconv1 -> deconv1
I0718 15:42:46.318919 95522 net.cpp:141] Setting up deconv1
I0718 15:42:46.318941 95522 net.cpp:148] Top shape: 1 1 1200 1600 (1920000)
I0718 15:42:46.318949 95522 net.cpp:156] Memory required for data: 57446412
I0718 15:42:46.318965 95522 layer_factory.hpp:77] Creating layer bn_deconv1
I0718 15:42:46.318982 95522 net.cpp:91] Creating Layer bn_deconv1
I0718 15:42:46.318991 95522 net.cpp:425] bn_deconv1 <- deconv1
I0718 15:42:46.319002 95522 net.cpp:386] bn_deconv1 -> deconv1 (in-place)
I0718 15:42:46.325611 95522 net.cpp:141] Setting up bn_deconv1
I0718 15:42:46.325633 95522 net.cpp:148] Top shape: 1 1 1200 1600 (1920000)
I0718 15:42:46.325640 95522 net.cpp:156] Memory required for data: 65126412
I0718 15:42:46.325656 95522 layer_factory.hpp:77] Creating layer scale_deconv1
I0718 15:42:46.325670 95522 net.cpp:91] Creating Layer scale_deconv1
I0718 15:42:46.325677 95522 net.cpp:425] scale_deconv1 <- deconv1
I0718 15:42:46.325688 95522 net.cpp:386] scale_deconv1 -> deconv1 (in-place)
I0718 15:42:46.325736 95522 layer_factory.hpp:77] Creating layer scale_deconv1
I0718 15:42:46.338281 95522 net.cpp:141] Setting up scale_deconv1
I0718 15:42:46.338304 95522 net.cpp:148] Top shape: 1 1 1200 1600 (1920000)
I0718 15:42:46.338312 95522 net.cpp:156] Memory required for data: 72806412
I0718 15:42:46.338325 95522 layer_factory.hpp:77] Creating layer relu_deconv1
I0718 15:42:46.338338 95522 net.cpp:91] Creating Layer relu_deconv1
I0718 15:42:46.338346 95522 net.cpp:425] relu_deconv1 <- deconv1
I0718 15:42:46.338357 95522 net.cpp:386] relu_deconv1 -> deconv1 (in-place)
I0718 15:42:46.344671 95522 net.cpp:141] Setting up relu_deconv1
I0718 15:42:46.344691 95522 net.cpp:148] Top shape: 1 1 1200 1600 (1920000)
I0718 15:42:46.344701 95522 net.cpp:156] Memory required for data: 80486412
I0718 15:42:46.344712 95522 layer_factory.hpp:77] Creating layer pool
I0718 15:42:46.344733 95522 net.cpp:91] Creating Layer pool
I0718 15:42:46.344741 95522 net.cpp:425] pool <- deconv1
I0718 15:42:46.344753 95522 net.cpp:399] pool -> pool
I0718 15:42:46.344828 95522 net.cpp:141] Setting up pool
I0718 15:42:46.344841 95522 net.cpp:148] Top shape: 1 1 172 229 (39388)
I0718 15:42:46.344848 95522 net.cpp:156] Memory required for data: 80643964
I0718 15:42:46.344856 95522 layer_factory.hpp:77] Creating layer ip1
I0718 15:42:46.344884 95522 net.cpp:91] Creating Layer ip1
I0718 15:42:46.344893 95522 net.cpp:425] ip1 <- pool
I0718 15:42:46.344905 95522 net.cpp:399] ip1 -> ip1
I0718 15:42:46.353900 95522 net.cpp:141] Setting up ip1
I0718 15:42:46.353920 95522 net.cpp:148] Top shape: 1 20 (20)
I0718 15:42:46.353929 95522 net.cpp:156] Memory required for data: 80644044
I0718 15:42:46.353947 95522 layer_factory.hpp:77] Creating layer conv1_p
I0718 15:42:46.353968 95522 net.cpp:91] Creating Layer conv1_p
I0718 15:42:46.353977 95522 net.cpp:425] conv1_p <- data_p
I0718 15:42:46.353988 95522 net.cpp:399] conv1_p -> conv1_p
I0718 15:42:46.354419 95522 net.cpp:141] Setting up conv1_p
I0718 15:42:46.354436 95522 net.cpp:148] Top shape: 1 3 240 320 (230400)
I0718 15:42:46.354444 95522 net.cpp:156] Memory required for data: 81565644
I0718 15:42:46.354454 95522 net.cpp:484] Sharing parameters 'conv1_w' owned by layer 'conv1', param index 0
I0718 15:42:46.354462 95522 net.cpp:484] Sharing parameters 'conv1_b' owned by layer 'conv1', param index 1
I0718 15:42:46.354471 95522 layer_factory.hpp:77] Creating layer bn_conv1_p
I0718 15:42:46.354485 95522 net.cpp:91] Creating Layer bn_conv1_p
I0718 15:42:46.354491 95522 net.cpp:425] bn_conv1_p <- conv1_p
I0718 15:42:46.354502 95522 net.cpp:386] bn_conv1_p -> conv1_p (in-place)
I0718 15:42:46.354816 95522 net.cpp:141] Setting up bn_conv1_p
I0718 15:42:46.354830 95522 net.cpp:148] Top shape: 1 3 240 320 (230400)
I0718 15:42:46.354848 95522 net.cpp:156] Memory required for data: 82487244
I0718 15:42:46.354876 95522 layer_factory.hpp:77] Creating layer scale_conv1_p
I0718 15:42:46.354890 95522 net.cpp:91] Creating Layer scale_conv1_p
I0718 15:42:46.354899 95522 net.cpp:425] scale_conv1_p <- conv1_p
I0718 15:42:46.354920 95522 net.cpp:386] scale_conv1_p -> conv1_p (in-place)
I0718 15:42:46.354970 95522 layer_factory.hpp:77] Creating layer scale_conv1_p
I0718 15:42:46.356063 95522 net.cpp:141] Setting up scale_conv1_p
I0718 15:42:46.356083 95522 net.cpp:148] Top shape: 1 3 240 320 (230400)
I0718 15:42:46.356102 95522 net.cpp:156] Memory required for data: 83408844
I0718 15:42:46.356115 95522 layer_factory.hpp:77] Creating layer relu_p
I0718 15:42:46.356128 95522 net.cpp:91] Creating Layer relu_p
I0718 15:42:46.356137 95522 net.cpp:425] relu_p <- conv1_p
I0718 15:42:46.356148 95522 net.cpp:386] relu_p -> conv1_p (in-place)
I0718 15:42:46.357172 95522 net.cpp:141] Setting up relu_p
I0718 15:42:46.357192 95522 net.cpp:148] Top shape: 1 3 240 320 (230400)
I0718 15:42:46.357199 95522 net.cpp:156] Memory required for data: 84330444
I0718 15:42:46.357210 95522 layer_factory.hpp:77] Creating layer deconv1_p
I0718 15:42:46.357228 95522 net.cpp:91] Creating Layer deconv1_p
I0718 15:42:46.357236 95522 net.cpp:425] deconv1_p <- conv1_p
I0718 15:42:46.357249 95522 net.cpp:399] deconv1_p -> deconv1_p
I0718 15:42:46.363662 95522 net.cpp:141] Setting up deconv1_p
I0718 15:42:46.363682 95522 net.cpp:148] Top shape: 1 1 1200 1600 (1920000)
I0718 15:42:46.363690 95522 net.cpp:156] Memory required for data: 92010444
I0718 15:42:46.363699 95522 net.cpp:484] Sharing parameters 'ip1_w' owned by layer 'deconv1', param index 0
I0718 15:42:46.363708 95522 net.cpp:484] Sharing parameters 'ip1_b' owned by layer 'deconv1', param index 1
I0718 15:42:46.363718 95522 layer_factory.hpp:77] Creating layer bn_deconv1_p
I0718 15:42:46.363729 95522 net.cpp:91] Creating Layer bn_deconv1_p
I0718 15:42:46.363737 95522 net.cpp:425] bn_deconv1_p <- deconv1_p
I0718 15:42:46.363750 95522 net.cpp:386] bn_deconv1_p -> deconv1_p (in-place)
I0718 15:42:46.370247 95522 net.cpp:141] Setting up bn_deconv1_p
I0718 15:42:46.370267 95522 net.cpp:148] Top shape: 1 1 1200 1600 (1920000)
I0718 15:42:46.370275 95522 net.cpp:156] Memory required for data: 99690444
I0718 15:42:46.370290 95522 layer_factory.hpp:77] Creating layer scale_deconv1_p
I0718 15:42:46.370309 95522 net.cpp:91] Creating Layer scale_deconv1_p
I0718 15:42:46.370318 95522 net.cpp:425] scale_deconv1_p <- deconv1_p
I0718 15:42:46.370329 95522 net.cpp:386] scale_deconv1_p -> deconv1_p (in-place)
I0718 15:42:46.370388 95522 layer_factory.hpp:77] Creating layer scale_deconv1_p
I0718 15:42:46.382904 95522 net.cpp:141] Setting up scale_deconv1_p
I0718 15:42:46.382925 95522 net.cpp:148] Top shape: 1 1 1200 1600 (1920000)
I0718 15:42:46.382933 95522 net.cpp:156] Memory required for data: 107370444
I0718 15:42:46.382956 95522 layer_factory.hpp:77] Creating layer relu1_deconv_p
I0718 15:42:46.382971 95522 net.cpp:91] Creating Layer relu1_deconv_p
I0718 15:42:46.382978 95522 net.cpp:425] relu1_deconv_p <- deconv1_p
I0718 15:42:46.382989 95522 net.cpp:386] relu1_deconv_p -> deconv1_p (in-place)
I0718 15:42:46.389305 95522 net.cpp:141] Setting up relu1_deconv_p
I0718 15:42:46.389325 95522 net.cpp:148] Top shape: 1 1 1200 1600 (1920000)
I0718 15:42:46.389333 95522 net.cpp:156] Memory required for data: 115050444
I0718 15:42:46.389344 95522 layer_factory.hpp:77] Creating layer pool_p
I0718 15:42:46.389358 95522 net.cpp:91] Creating Layer pool_p
I0718 15:42:46.389366 95522 net.cpp:425] pool_p <- deconv1_p
I0718 15:42:46.389377 95522 net.cpp:399] pool_p -> pool_p
I0718 15:42:46.389430 95522 net.cpp:141] Setting up pool_p
I0718 15:42:46.389442 95522 net.cpp:148] Top shape: 1 1 172 229 (39388)
I0718 15:42:46.389449 95522 net.cpp:156] Memory required for data: 115207996
I0718 15:42:46.389457 95522 layer_factory.hpp:77] Creating layer ip1_p
I0718 15:42:46.389469 95522 net.cpp:91] Creating Layer ip1_p
I0718 15:42:46.389478 95522 net.cpp:425] ip1_p <- pool_p
I0718 15:42:46.389495 95522 net.cpp:399] ip1_p -> ip1_p
I0718 15:42:46.398460 95522 net.cpp:141] Setting up ip1_p
I0718 15:42:46.398480 95522 net.cpp:148] Top shape: 1 20 (20)
I0718 15:42:46.398488 95522 net.cpp:156] Memory required for data: 115208076
I0718 15:42:46.398501 95522 layer_factory.hpp:77] Creating layer loss
I0718 15:42:46.398520 95522 net.cpp:91] Creating Layer loss
I0718 15:42:46.398529 95522 net.cpp:425] loss <- ip1
I0718 15:42:46.398537 95522 net.cpp:425] loss <- ip1_p
I0718 15:42:46.398545 95522 net.cpp:425] loss <- sim
I0718 15:42:46.398561 95522 net.cpp:399] loss -> loss
…
